…
WARNING:tensorflow:From /opt/anaconda3/envs/py27/lib/python2.7/site-packages/keras/backend/tensorflow_backend.py:133: The name tf.placeholder_with_default is deprecated. Please use tf.compat.v1.placeholder_with_default instead.

WARNING:tensorflow:From /opt/anaconda3/envs/py27/lib/python2.7/site-packages/keras/optimizers.py:790: The name tf.train.Optimizer is deprecated. Please use tf.compat.v1.train.Optimizer instead.

__________________________________________________________________________________________________
Layer (type)                    Output Shape         Param #     Connected to
==================================================================================================
input_1 (InputLayer)            (None, 4, 13, 1)     0
__________________________________________________________________________________________________
leaky_re_lu_1 (LeakyReLU)       (None, 4, 13, 1)     0           input_1[0][0]
__________________________________________________________________________________________________
conv2d_1 (Conv2D)               (None, 4, 13, 1)     1           leaky_re_lu_1[0][0]
__________________________________________________________________________________________________
batch_normalization_1 (BatchNor (None, 4, 13, 1)     16          conv2d_1[0][0]
__________________________________________________________________________________________________
leaky_re_lu_2 (LeakyReLU)       (None, 4, 13, 1)     0           batch_normalization_1[0][0]
__________________________________________________________________________________________________
conv2d_2 (Conv2D)               (None, 4, 13, 1)     1           leaky_re_lu_2[0][0]
__________________________________________________________________________________________________
batch_normalization_2 (BatchNor (None, 4, 13, 1)     16          conv2d_2[0][0]
__________________________________________________________________________________________________
add_1 (Add)                     (None, 4, 13, 1)     0           batch_normalization_2[0][0]
                                                                 leaky_re_lu_1[0][0]
__________________________________________________________________________________________________
leaky_re_lu_3 (LeakyReLU)       (None, 4, 13, 1)     0           add_1[0][0]
__________________________________________________________________________________________________
conv2d_3 (Conv2D)               (None, 4, 10, 2)     8           leaky_re_lu_3[0][0]
__________________________________________________________________________________________________
batch_normalization_3 (BatchNor (None, 4, 10, 2)     16          conv2d_3[0][0]
__________________________________________________________________________________________________
leaky_re_lu_4 (LeakyReLU)       (None, 4, 10, 2)     0           batch_normalization_3[0][0]
__________________________________________________________________________________________________
flatten_1 (Flatten)             (None, 80)           0           leaky_re_lu_4[0][0]
__________________________________________________________________________________________________
dense_1 (Dense)                 (None, 1)            80          flatten_1[0][0]
==================================================================================================
Total params: 138
Trainable params: 114
Non-trainable params: 24
__________________________________________________________________________________________________
__________________________________________________________________________________________________
Layer (type)                    Output Shape         Param #     Connected to
==================================================================================================
order (InputLayer)              (None, 1, 52)        0
__________________________________________________________________________________________________
players (InputLayer)            (None, 1, 52)        0
__________________________________________________________________________________________________
hand (InputLayer)               (None, 1, 52)        0
__________________________________________________________________________________________________
reshape_1 (Reshape)             (None, 4, 13, 1)     0           order[0][0]
__________________________________________________________________________________________________
reshape_2 (Reshape)             (None, 4, 13, 1)     0           players[0][0]
__________________________________________________________________________________________________
reshape_3 (Reshape)             (None, 4, 13, 1)     0           hand[0][0]
__________________________________________________________________________________________________
conv2d_4 (Conv2D)               (None, 4, 13, 1)     1           reshape_1[0][0]
__________________________________________________________________________________________________
conv2d_6 (Conv2D)               (None, 4, 13, 1)     1           reshape_2[0][0]
__________________________________________________________________________________________________
conv2d_8 (Conv2D)               (None, 4, 13, 1)     1           reshape_3[0][0]
__________________________________________________________________________________________________
batch_normalization_4 (BatchNor (None, 4, 13, 1)     16          conv2d_4[0][0]
__________________________________________________________________________________________________
batch_normalization_6 (BatchNor (None, 4, 13, 1)     16          conv2d_6[0][0]
__________________________________________________________________________________________________
batch_normalization_8 (BatchNor (None, 4, 13, 1)     16          conv2d_8[0][0]
__________________________________________________________________________________________________
leaky_re_lu_5 (LeakyReLU)       (None, 4, 13, 1)     0           batch_normalization_4[0][0]
__________________________________________________________________________________________________
leaky_re_lu_7 (LeakyReLU)       (None, 4, 13, 1)     0           batch_normalization_6[0][0]
__________________________________________________________________________________________________
leaky_re_lu_9 (LeakyReLU)       (None, 4, 13, 1)     0           batch_normalization_8[0][0]
__________________________________________________________________________________________________
conv2d_5 (Conv2D)               (None, 4, 10, 2)     8           leaky_re_lu_5[0][0]
__________________________________________________________________________________________________
conv2d_7 (Conv2D)               (None, 4, 10, 2)     8           leaky_re_lu_7[0][0]
__________________________________________________________________________________________________
conv2d_9 (Conv2D)               (None, 4, 10, 2)     8           leaky_re_lu_9[0][0]
__________________________________________________________________________________________________
batch_normalization_5 (BatchNor (None, 4, 10, 2)     16          conv2d_5[0][0]
__________________________________________________________________________________________________
batch_normalization_7 (BatchNor (None, 4, 10, 2)     16          conv2d_7[0][0]
__________________________________________________________________________________________________
batch_normalization_9 (BatchNor (None, 4, 10, 2)     16          conv2d_9[0][0]
__________________________________________________________________________________________________
bets (InputLayer)               (None, 1, 4)         0
__________________________________________________________________________________________________
tricks (InputLayer)             (None, 1, 4)         0
__________________________________________________________________________________________________
leaky_re_lu_6 (LeakyReLU)       (None, 4, 10, 2)     0           batch_normalization_5[0][0]
__________________________________________________________________________________________________
leaky_re_lu_8 (LeakyReLU)       (None, 4, 10, 2)     0           batch_normalization_7[0][0]
__________________________________________________________________________________________________
leaky_re_lu_10 (LeakyReLU)      (None, 4, 10, 2)     0           batch_normalization_9[0][0]
__________________________________________________________________________________________________
leaky_re_lu_11 (LeakyReLU)      (None, 1, 4)         0           bets[0][0]
__________________________________________________________________________________________________
leaky_re_lu_12 (LeakyReLU)      (None, 1, 4)         0           tricks[0][0]
__________________________________________________________________________________________________
flatten_2 (Flatten)             (None, 80)           0           leaky_re_lu_6[0][0]
__________________________________________________________________________________________________
flatten_3 (Flatten)             (None, 80)           0           leaky_re_lu_8[0][0]
__________________________________________________________________________________________________
flatten_4 (Flatten)             (None, 80)           0           leaky_re_lu_10[0][0]
__________________________________________________________________________________________________
flatten_5 (Flatten)             (None, 4)            0           leaky_re_lu_11[0][0]
__________________________________________________________________________________________________
flatten_6 (Flatten)             (None, 4)            0           leaky_re_lu_12[0][0]
__________________________________________________________________________________________________
concatenate_1 (Concatenate)     (None, 248)          0           flatten_2[0][0]
                                                                 flatten_3[0][0]
                                                                 flatten_4[0][0]
                                                                 flatten_5[0][0]
                                                                 flatten_6[0][0]
__________________________________________________________________________________________________
leaky_re_lu_13 (LeakyReLU)      (None, 248)          0           concatenate_1[0][0]
__________________________________________________________________________________________________
dense_2 (Dense)                 (None, 1)            248         leaky_re_lu_13[0][0]
==================================================================================================
Total params: 371
Trainable params: 323
Non-trainable params: 48
__________________________________________________________________________________________________
Player 1 bet 2
Player 2 bet 2
Player 3 bet 2
Player 4 bet 2
Player 4: 2 bet, 0 won
state -> %s {'bets': array([[2, 2, 2, 2]]), 'lead': array(-1), 'tricks': array([[0, 0, 0, 0]]), 'hand': array([[0., 0., 1., 1., 0., 0., 0., 0., 0., 0., 0., 1., 1., 0., 0., 0.,
…
